models/AE.pth (torch, 780597 bytes, 20 tensors)

enc.conv.0.weight f4 [64, 3, 7, 7]
000000 ec ba 91 3c 08 ed 10 bd 94 fd 82 bd a5 7c 8d 3d
       0.017789327 -0.0353823 -0.063960224 0.0690854
000010 e5 88 3f bc af 1a d2 bc 56 a7 88 bd c9 1c a2 bd
       -0.011690353 -0.02564749 -0.06672542 -0.079156466
000020 a6 0e e1 3c 8f e5 9c bc 97 20 81 bd 20 c7 36 3d
       0.027472805 -0.01915243 -0.06305044 0.044623494
000030 60 9a 8a bd b6 01 88 3d 1c 88 a7 bd e7 b8 68 3b
       -0.06767726 0.06640951 -0.08180258 0.00355106
000040 35 0a ee bb d6 c5 2e 3d c6 af d3 3c ac 14 14 bd
       -0.0072644004 0.04266914 0.025840651 -0.036152527
000050 bb b2 81 bb 29 b2 81 bd e9 51 25 3d 9f a6 01 3d
       -0.003958074 -0.063328095 0.04036132 0.031653043
000060 4d 87 cf bc 69 01 a1 3c 1c 6d 90 bd 1d ea 42 3d
       -0.025333071 0.019653993 -0.07052061 0.04758655
000070 20 7a 74 3d 91 14 c6 3b f4 ce 4e 3d 4d 69 6b 3d
       0.05968678 0.006044932 0.050490335 0.05747347
000080 69 bb 89 bc 87 09 4b 3d b0 1f 8d 3c df c6 94 3c
       -0.016812997 0.049569633 0.017227024 0.018161235
000090 6d 4f 8e bd 89 4a d9 3c 2f 9a 09 3c 30 db 7d 3d
       -0.06948743 0.026524799 0.008398577 0.06197661
0000a0 09 c8 49 bd 65 5d 26 bd f0 40 30 3d f9 bf 34 bd
       -0.049263034 -0.04061641 0.04303068 -0.044128392
0000b0 d7 0c e8 3c ef 7e 7e 3c 0f 56 67 3d a8 19 ac bd
       0.028326435 0.015533193 0.056478556 -0.08403331
0000c0 d1 2c 1e 3d 2c 81 22 bd f1 4e 9b bd 02 99 6c bd
       0.03861696 -0.03967397 -0.07583416 -0.057763107
0000d0 b1 c0 94 3d 5d 34 9e bc f6 79 fa bc b9 00 67 3d
       0.072633155 -0.019312078 -0.030575734 0.056397174
0000e0 57 37 9d bd 75 50 02 3d d9 43 61 bd 32 04 a4 bd
       -0.07676571 0.03181501 -0.054996345 -0.08008613
0000f0 54 ff 53 3d 26 c1 1d bd 64 92 e8 3a fc 64 9a 3d
       0.05175717 -0.03851428 0.0017743823 0.075387925
000100 f5 67 9e bd d6 ca 47 bd a5 76 a9 bd c7 d3 b5 bc
       -0.07734672 -0.048777424 -0.08274583 -0.02219571
000110 9f e2 03 3b cf ba 92 3d 78 22 9b bd b4 2e 70 bd
       0.002012409 0.07164537 -0.07574934 -0.05863829
000120 da af 9a bd f2 95 40 bd 4f cd e8 bc 8f 07 3b bd
       -0.07553072 -0.047018 -0.028418211 -0.045661505
000130 ed 65 93 3d 22 cb 95 3d bc 67 2e 3b 10 3d 89 bc
       0.07197175 0.07314135 0.0026612123 -0.01675275
000140 93 46 25 bd 8d 47 99 bc d6 ad 61 bd 41 31 2b bc
       -0.040350508 -0.018710876 -0.055097423 -0.010448755
000150 3a c2 d1 3c 4a 51 87 bd 04 d0 b0 bd e4 71 08 bd
       0.02560531 -0.066073015 -0.08633426 -0.03331174
000160 ca ce b3 bd 4a d2 c4 bc 23 8a b4 bd 77 60 7b 3d
       -0.08779676 -0.024026055 -0.0881541 0.061371293
000170 f1 27 b2 bd 57 5a d1 bc fe c0 db bc fb 7e d0 3c
       -0.086990245 -0.025555773 -0.026825424 0.025451174
000180 8e 83 8f bd 57 7e 77 3c d4 4a 88 bc 16 c4 83 3b
       -0.07007514 0.015105805 -0.016637243 0.004021178
000190 9f 99 a9 bd 42 46 6e bd 25 f9 88 bd 27 6a 8b 3c
       -0.08281254 -0.05817247 -0.066881455 0.01701839
0001a0 6f 6a eb bc 57 13 33 bd 79 c4 b3 bd df 87 50 3c
       -0.028737275 -0.043719616 -0.087777086 0.012727707
0001b0 8b 84 18 3d 0f 23 c5 bb 93 5f 26 bd 14 e8 9d 3d
       0.037235778 -0.006016142 -0.04061849 0.07710281
0001c0 8c ad 9a 3d 8b f6 46 bc ff 8f ad bd 88 44 ac bd
       0.07552633 -0.012143741 -0.08474731 -0.08411509
0001d0 8c 35 f7 bc 4e b0 dc bc a3 92 5c bd 5f 78 89 3d
       -0.0301769 -0.026939537 -0.05385078 0.06712412
0001e0 aa 51 c7 bb 90 40 66 3d e0 60 46 bc 38 f0 95 3c
       -0.006082733 0.056213915 -0.012108058 0.018303022
0001f0 7b 56 f6 bc 42 6c 2b 3d dd ff 9b 3c 78 7c ab bd
       -0.030070534 0.04185129 0.019042904 -0.0837335
000200 c0 a8 88 bd e0 fd bf 3c 81 3c 2a bd b2 e5 1c bd
       -0.066728115 0.023436487 -0.041561607 -0.038304992
000210 c6 b0 57 3d 62 81 8b 3d 24 d1 88 bc dd f8 9d bd
       0.05265882 0.06811787 -0.016701289 -0.077134825
000220 06 a9 38 bc c8 a3 34 bd e2 2f ab 3b f9 8e ad 3c
       -0.011270767 -0.044101506 0.005224214 0.021186339
000230 84 0c 22 3b d6 16 84 3d 66 44 69 3d 59 20 22 3d
       0.0024726698 0.06449668 0.056949995 0.03958163
000240 e5 11 74 bd 7f 2b 86 3d 76 8c 7c 3d 7e 7f 91 bc
       -0.059587378 0.06551265 0.06165739 -0.017760988
000250 27 f4 ce bc 02 50 3a bd c7 e7 4e 3d 92 8f 1e 3b
       -0.025262905 -0.045486458 0.05051401 0.0024194461
000260 09 73 b2 3c 96 31 34 bd d4 8d 13 bd d9 3f 20 bd
       0.021783369 -0.0439926 -0.03602393 -0.03912339
000270 a5 b9 87 bd 5d 8d 2f bc c0 1c af 3c 2e 0d 1f bd
       -0.06627206 -0.010714856 0.021376014 -0.03883093
000280 ee 26 97 3c f9 90 8b bd 9d 07 eb bc 85 2d 15 bd
       0.01845118 -0.06814761 -0.028690154 -0.036420364
000290 e7 f8 9d 3c 28 2b 3d 3c 4a 97 be bc cd 78 43 bd
       0.019283725 0.011545934 -0.0232655 -0.047722626
0002a0 92 d8 ab bc b5 78 0b bd f9 51 99 3c 7e e7 5e bd
       -0.020977292 -0.034050662 0.018715845 -0.054419987
0002b0 fd fe 48 bd 86 c3 25 bd e5 f1 f8 bc 54 20 be bc
       -0.0490713 -0.04046967 -0.030388782 -0.023208775
0002c0 c6 0c 35 bd e2 e3 79 bc 80 25 90 bd 42 4b 51 bd
       -0.044201635 -0.015252085 -0.070384026 -0.051097162
0002d0 21 88 21 bc e5 03 88 3d d8 44 a8 bb bd ef 61 bd
       -0.009859116 0.06641368 -0.00513516 -0.055160273
0002e0 c1 92 b4 3c cd f3 6d bd c0 fb 85 bc e4 ad b2 bd
       0.022042634 -0.058093835 -0.016355395 -0.08724573
0002f0 80 14 8e 3d 9a 9d 85 3d 01 79 22 3d d3 42 8b bb
       0.06937504 0.06524201 0.03966618 -0.0042499094
000300 72 0d 8f bd 68 76 a4 3b 9b 07 50 bd ba f1 48 bd
       -0.06984986 0.005018998 -0.050788503 -0.049058653
000310 33 85 90 3d 5a 4a 43 3c 13 0a 61 3c 03 2f 13 3d
       0.07056656 0.011919582 0.013735312 0.035933506
000320 0b b9 93 3d bd 1f a5 bd 58 8b 2c bd 6e 8e f6 3c
       0.072130285 -0.08062694 -0.042125076 0.030097213
000330 91 c4 1a bd 2a c6 01 3d 3a 36 94 bd 5c 4d 5a 3d
       -0.037785117 0.031683125 -0.072369054 0.053296432
000340 9a e0 71 3c a3 59 ad 3c e5 0c f7 3a 70 11 85 bd
       0.014763022 0.021160906 0.0018848447 -0.064974666
000350 0e 7e af bd b5 e3 74 bd 69 2b 98 bd 3c b7 af bd
       -0.08568965 -0.05978747 -0.07430155 -0.08579871
000360 a8 e0 d3 bc 5b 83 b0 bd c2 09 69 bc 9f 44 ec ba
       -0.02586396 -0.08618804 -0.014223518 -0.0018025822
000370 91 dd 4f bd 1b 3e 1b 3d c6 89 9e 3d 09 33 71 bc
       -0.05074841 0.037901025 0.07741122 -0.01472164
000380 1a 2a 7d bd ea a1 8a bc 2b 64 78 3d 65 be 1d 3d
       -0.06180773 -0.01692291 0.060642403 0.038511652
000390 44 b0 75 3d 35 16 ce 3c 83 bf 62 3d 51 5b 3a bc
       0.059982553 0.025157074 0.05535842 -0.011374311
0003a0 36 8f 9a 3d 51 13 a7 bd 25 1d 93 bd 86 af 81 bd
       0.075468466 -0.08157981 -0.07183293 -0.063323066
0003b0 08 f7 9b 3d 96 b9 9b 3d a5 c9 4e bd 58 e0 e7 3b
       0.07615477 0.07603757 -0.050485272 0.0070763044
0003c0 4a 51 9f bc 49 90 e3 3c 15 4a bb 3a fa c0 92 bc
       -0.019447941 0.027778761 0.0014289046 -0.017914284
0003d0 a5 fe 79 bd c2 31 b7 bd 87 ff 39 3d 3d af 9e bc
       -0.061033864 -0.089450374 0.045409705 -0.01937067
0003e0 16 19 9f bc 87 06 94 bd ca 6f 9e bc c2 fe 82 bc
       -0.019421142 -0.072278075 -0.019340415 -0.015990619
0003f0 ce 15 57 bd ac 43 bd 3c 6c 59 8e bd 08 da 22 bd
       -0.05251103 0.023103558 -0.069506496 -0.039758712

enc.conv.0.bias f4 [64]
000000 98 d5 9d 3d 18 b5 ec bc 62 d6 3a bc 1c 9e 41 3d
       0.077067554 -0.028894946 -0.011403652 0.047269925
000010 78 9a 88 3d 29 48 ac bd 5c 37 44 3d ac 77 45 3d
       0.066700876 -0.08412201 0.047904357 0.04820983
000020 4b 2f 80 3b d2 04 60 3d f1 db 63 bc bb 67 ce 3c
       0.0039118878 0.054692097 -0.013907419 0.025195947
000030 93 55 12 bc e9 b0 04 3d 1b 0b 16 bd 99 29 f8 3b
       -0.008931535 0.032395277 -0.036631685 0.007573318
000040 ff 9d 1d 3e 6f 00 46 bd e7 0d c0 bc a3 9d 2a 3d
       0.15392302 -0.048340257 -0.02344413 0.04165424
000050 ae 2b 54 3c f9 29 1c 3d 9f 73 a6 3d fe 03 73 bd
       0.012949867 0.038125966 0.08127522 -0.05932998
000060 e7 b0 91 bc 3a 0b b9 3a bf cc 45 bd 2d 66 09 bd
       -0.017784549 0.0014117726 -0.048290964 -0.033544708
000070 29 06 5f 3c 32 8f 4a bd d2 da 1d bc bd 3b 56 3d
       0.013612309 -0.049452968 -0.00963469 0.052303065
000080 6b 44 8c bd 1c 65 a5 bd 9b 63 11 3d 48 5c e2 bc
       -0.06848987 -0.08075926 0.03549538 -0.027631894
000090 02 43 82 3c e3 86 29 3d 92 0b 9f 3b fc f2 32 3d
       0.015901092 0.041388404 0.004853674 0.04368876
0000a0 e7 fd 93 3d a3 0a 3f bc c8 0d ae bd 55 40 4a bd
       0.072261624 -0.011660251 -0.08498722 -0.049377758
0000b0 57 36 84 bd 68 c8 8b bc 91 6d 7a bc ba fd 98 3d
       -0.06455677 -0.017063335 -0.015284912 0.074702695
0000c0 51 35 47 3d e5 50 51 3d c6 60 13 bd 53 c2 e3 bc
       0.04863483 0.051102538 -0.035980962 -0.027802622
0000d0 a6 97 84 bd b5 1b 46 3d 19 a2 a8 bd b9 e4 13 3d
       -0.06474237 0.048366267 -0.08234043 0.0361068
0000e0 f1 31 37 3d b2 13 0b 3d 87 2e 40 bd 9b 13 85 bd
       0.044725362 0.03395433 -0.046919372 -0.0649788
0000f0 f4 51 a0 3c 3b d7 4b bd c2 95 26 3a ef 5b 84 3d
       0.019570328 -0.049765807 0.0006354713 0.064628474

enc.conv.2.weight f4 [64]
000000 d8 86 7f 3f 6a 19 80 3f 67 5e 7f 3f 32 14 7e 3f
       0.9981513 1.0007756 0.9975342 0.99249566
000010 71 4d 7e 3f f1 d3 7e 3f b7 14 76 3f 59 6d 7c 3f
       0.99336916 0.99542147 0.9612536 0.9860435
000020 17 97 7e 3f 57 96 7d 3f e5 c7 7c 3f 73 2e 7e 3f
       0.99449295 0.99057525 0.98742515 0.99289626
000030 8c 96 80 3f 5d a6 7f 3f eb f0 80 3f 09 04 7f 3f
       1.0045943 0.99863225 1.0073522 0.9961553
000040 31 87 80 3f 37 27 81 3f 2c 82 81 3f f3 0e 7f 3f
       1.0041257 1.0090092 1.011785 0.99632186
000050 06 6c 79 3f be 0c 83 3f 14 76 81 3f 97 e6 83 3f
       0.97430456 1.0238264 1.011416 1.0304745
000060 f8 9f 80 3f 9a d7 7f 3f a2 8f 80 3f 5c d8 80 3f
       1.0048819 0.99938357 1.0043833 1.0066028
000070 9a 38 7e 3f dd a0 80 3f 09 a0 80 3f 91 44 80 3f
       0.9930512 1.0049092 1.0048839 1.0020925
000080 81 c0 7e 3f 35 ed 80 3f 87 15 80 3f c5 7d 7b 3f
       0.9951249 1.007239 1.000657 0.98238784
000090 55 db 81 3f 70 eb 7f 3f 07 4d 81 3f b1 3f 81 3f
       1.014506 0.99968624 1.0101632 1.0097562
0000a0 c1 61 7f 3f e9 56 7f 3f b1 c1 7e 3f c4 f9 80 3f
       0.99758536 0.9974199 0.995143 1.0076222
0000b0 a3 af 81 3f 39 2b 7f 3f c3 4f 80 3f 83 62 7e 3f
       1.0131725 0.9967533 1.0024341 0.99369067
0000c0 63 88 7e 3f dc 8e 7d 3f 87 e2 81 3f cb 07 7d 3f
       0.9942686 0.9904611 1.0147256 0.98840016
0000d0 bc b0 80 3f 5c 07 7d 3f 79 96 7f 3f 38 19 80 3f
       1.0053935 0.98839355 0.9983898 1.0007696
0000e0 34 ab 7f 3f 93 6b 7e 3f df 86 7e 3f 09 4c 7d 3f
       0.9987061 0.99382895 0.99424547 0.98944145
0000f0 01 0a 84 3f 12 39 7e 3f 27 ce 80 3f 3a 6d 80 3f
       1.0315553 0.9930583 1.0062913 1.0033333

enc.conv.2.bias f4 [64]
000000 b6 a9 b3 3c 90 cd f1 3c 3b 7d af 3c 19 4b 95 3b
       0.02193151 0.029516965 0.02142202 0.0045560715
000010 4b c2 95 bc 84 a3 6f 39 79 9f e3 3c eb 08 aa 3b
       -0.018281123 0.0002285373 0.027786003 0.0051890514
000020 08 f6 38 3c bb e4 34 3c 2a ae b8 3b 13 66 e9 b9
       0.011289127 0.011040862 0.0056359963 -0.00044517274
000030 92 6d 2d bc 9d 75 64 bd ee 91 36 bd 00 1d ef bc
       -0.010585206 -0.055776227 -0.044572763 -0.029188633
000040 da 02 8a 3d 98 b1 1f bd 1a 1e 97 3b 25 66 fc bb
       0.06738825 -0.038987726 0.0046117427 -0.0077026063
000050 5d 4e 00 3d d7 29 81 bd c7 86 1c 3b 35 c7 a9 bc
       0.031324733 -0.063068084 0.0023884044 -0.020724872
000060 00 bd 04 3c 45 75 29 3d b2 3a 76 3c 97 e5 4c 3d
       0.008101702 0.041371603 0.0150286425 0.05002364
000070 f8 fc 10 3d 39 48 0c bb 55 dd c6 bb c8 3e ca 3c
       0.0353975 -0.0021405353 -0.0060688653 0.02468814
000080 8d 2c 8b ba 64 6b eb bc f7 06 35 bd 5a ae 70 ba
       -0.0010618136 -0.028737731 -0.044196095 -0.0009181254
000090 60 5d 0b 3d a8 3b fc 3d 2c 29 eb bc ca b4 2b 3d
       0.034024596 0.12316066 -0.028706156 0.04192046
0000a0 0e 04 7f 3c cd ba fe 3c 64 2c fa 3b 8d 29 03 3d
       0.015564932 0.031094933 0.0076346863 0.032022048
0000b0 a9 aa e0 bc 07 7d 4c ba 76 4d 5b 3c 32 7d 6e 3c
       -0.027425127 -0.0007800613 0.013385167 0.014556216
0000c0 75 04 96 ba 6a 67 47 bb d1 2d ac 3d 0b af 67 bc
       -0.001144542 -0.003042663 0.08407176 -0.014140855
0000d0 76 31 a6 3c c2 18 0f bc 15 2a 52 bd 3d e2 82 bd
       0.020287257 -0.00873393 -0.051309664 -0.06390808
0000e0 cb 52 88 3c c0 ce bf bc 13 3c d1 3b d8 fe 16 bc
       0.016641041 -0.023414016 0.0063853352 -0.009216033
0000f0 2e d6 c2 bc c4 91 7d bc 62 a8 28 bc 49 b9 67 3c
       -0.02378377 -0.015476648 -0.010294052 0.0141432965

enc.conv.2.running_mean f4 [64]
000000 d6 a1 69 3f 3b 4d 24 3f 4c a4 8c 3d 04 b2 92 3d
       0.9126257 0.64180344 0.06867275 0.0716286
000010 34 f6 85 3d 65 0b 17 3d 39 1d 32 3f 96 86 e4 3e
       0.065411 0.0368761 0.6957584 0.4463393
000020 92 8f 2e 3d 37 53 94 3d b3 ec 88 3d 12 c7 aa 3d
       0.042617388 0.072424345 0.06685772 0.08338751
000030 84 c7 15 3f 28 c8 0e 3f 7d fa 0e 3f 2a f9 1c 3f
       0.5850756 0.55774164 0.55850965 0.61317694
000040 c9 d0 b6 3d 1a 51 e5 3c f9 94 01 3f 18 af 16 3f
       0.08926541 0.027992774 0.5061794 0.5886092
000050 08 00 31 3f 61 80 78 3d da 57 58 3d 53 d6 72 3c
       0.6914067 0.060669307 0.052818157 0.014821607
000060 1a 41 23 3d db 63 23 3f 8f d4 88 3d 82 ea f0 3c
       0.039857008 0.6382424 0.06681167 0.029408697
000070 7b 43 cf 3d dd 3c b4 3e 2a 9a 64 3d bd 59 89 3f
       0.10120293 0.35202685 0.055811085 1.0730511
000080 8e 58 81 3d 91 b3 6a 3c 53 f9 74 3d c8 a8 f7 3e
       0.063157186 0.0143250385 0.059808087 0.48370957
000090 79 3f 43 3d 6b fe 27 3d ec 86 23 3d 99 06 87 3d
       0.047667954 0.041014116 0.039923593 0.06593055
0000a0 b5 45 be 3e 9e 7d 09 3f f6 a2 64 3d 0b 14 01 3d
       0.37162557 0.537073 0.055819474 0.031513255
0000b0 19 39 c6 3e 61 35 16 3f 29 ba 69 3f c1 d1 5d 3f
       0.38715437 0.586752 0.9129968 0.86648184
0000c0 9a 60 96 3d 64 7f a1 3d ca ce bb 3d 81 1d c8 3e
       0.07342644 0.07885626 0.09170301 0.3908501
0000d0 55 67 61 3e f5 e7 97 3d 56 18 bb 3c 80 fb f6 3e
       0.22012074 0.07417289 0.022838753 0.48238754
0000e0 96 e0 92 3d b8 8c 52 3d 06 1e 8b 3e 19 13 98 3e
       0.071717426 0.05140373 0.27171344 0.2970207
0000f0 cb 73 90 3d e5 4f 40 3d b7 12 4e 3d 47 0a ba 3e
       0.07053336 0.046951193 0.050310817 0.36335966

enc.conv.2.running_var f4 [64]
000000 2c c8 99 3e 45 02 29 3e 27 6c 12 3d cd 35 ef 3c
       0.30035532 0.16504772 0.035747673 0.029200459
000010 11 26 0f 3d 9c 99 78 3c ed 52 32 3e cb 92 8a 3d
       0.034948412 0.015173342 0.17414446 0.0676628
000020 59 48 29 3c e9 7a 58 3d 5d 89 04 3d 54 b4 9e 3d
       0.01033219 0.05285159 0.032357562 0.077492386
000030 f4 8c 06 3e a0 bc e3 3d 26 c5 f8 3d c5 16 0f 3e
       0.13139707 0.11119962 0.12146978 0.1397353
000040 02 69 3c 3d e1 5c 1b 3c fe 28 cf 3d ad 67 02 3e
       0.04599858 0.009482593 0.101152405 0.12734862
000050 3c 5b 39 3e 9b 62 9a 3c ce b7 88 3c 36 0a 46 3b
       0.1810121 0.018845847 0.016689207 0.0030218489
000060 1c 5e 26 3c 60 6d 21 3e a3 ca 60 3d 9b e2 16 3c
       0.010154273 0.1576438 0.05488075 0.0092093
000070 3a 42 61 3d 91 5b 5a 3d 15 0c fe 3c 25 67 d3 3e
       0.0549948 0.05330998 0.03101162 0.4128963
000080 03 54 20 3d fe 13 51 3b 97 72 ed 3c b3 ff c4 3d
       0.03914262 0.0031902785 0.028985305 0.09619083
000090 42 f2 3f 3c 67 eb 30 3c c5 b2 65 3c f5 b7 dd 3c
       0.011715474 0.010798312 0.014019673 0.027065257
0000a0 2e cb 33 3d 52 5c e3 3d 72 68 22 3d d3 5d d1 3b
       0.04389494 0.11101593 0.039650388 0.0063893585
0000b0 0f 01 88 3d ee 5e 0b 3e d2 2e a8 3e 4d 2b 85 3e
       0.06640827 0.13610432 0.3284822 0.26009598
0000c0 3e 5b e6 3c ae ec 6a 3d a3 a8 c0 3c 45 ca 78 3d
       0.02811968 0.05735462 0.023517912 0.060739774
0000d0 54 ed e7 3c ae 00 60 3d d2 dc cc 3b a0 0c b6 3d
       0.028311409 0.05468815 0.00625191 0.08889127
0000e0 20 b8 61 3d b8 90 a7 3c 09 c1 09 3d e1 09 49 3d
       0.055107236 0.02045475 0.03363136 0.049081687
0000f0 57 da c8 3c 06 10 da 3c 97 b3 df 3c 14 b7 3d 3d
       0.024518175 0.026618969 0.027307315 0.046317175

enc.conv.3.weight f4 [32, 64, 5, 5]
000000 8e 19 ac 3c 0e cb bd 3b aa 2d a1 3c 0f f6 b6 bc
       0.02100828 0.0057920283 0.019675095 -0.022334127
000010 41 7b 2c bc 2a b3 8e bc 0e 93 29 3c 03 ea 86 bc
       -0.010527433 -0.017419416 0.010350002 -0.016469007
000020 e0 01 0d 3c 19 40 8d bc 97 cf 96 3c d9 b6 85 bb
       0.008606404 -0.017242478 0.018409533 -0.004080635
000030 bb 0c 3e bc 37 fa 9f bc c4 db 77 bc 60 82 75 bc
       -0.011599715 -0.019528491 -0.01512808 -0.014984697
000040 a8 81 0b bc a4 11 48 3b 0f e1 9c 3b cf b9 bd 3c
       -0.008514799 0.0030528093 0.0047875713 0.02315989
000050 a5 8c 4e bc c5 ef 23 bc a2 58 b2 3c 23 8b 32 3c
       -0.012606774 -0.010005896 0.021770779 0.010897431
000060 57 e9 0f bb b2 32 30 3c 5b 91 53 3b 46 48 93 bc
       -0.002195915 0.010754274 0.0032282684 -0.017978799
000070 21 54 5b bc ce 55 96 bc 14 8b 85 ba d6 9f 5d bc
       -0.013386757 -0.018351462 -0.0010188543 -0.013526877
000080 72 aa 8c bb da 4a 9b 3b 99 e4 da bb b6 ce 94 3b
       -0.0042927796 0.0047391476 -0.006680083 0.0045412434
000090 b9 19 2e 3c 29 a9 6b bc 5c 03 05 bd 88 62 96 3a
       0.01062625 -0.014383593 -0.032473907 0.0011473456
0000a0 d0 df 44 3b e3 b0 08 3c 34 a7 75 bc 6e 82 02 bd
       0.003004063 0.008342954 -0.014993478 -0.03186267
0000b0 65 63 ef bb de 7e b1 3b 12 ec 4a bb 66 b0 c6 bc
       -0.00730555 0.005416735 -0.0030963463 -0.024254035
0000c0 28 e7 7e bc 74 7f b3 bc 99 c7 f8 bb 8e 63 06 bc
       -0.015558042 -0.02191136 -0.0075921533 -0.008202447
0000d0 96 1d 0d bc c6 18 9f 38 cd 40 b0 bb 45 ba 98 3c
       -0.008613011 7.586325e-05 -0.0053788186 0.018643508
0000e0 3e 8f ec bc e7 03 ef bb a0 70 b0 36 27 b4 a2 bc
       -0.028876897 -0.0072941664 5.25832e-06 -0.019861294
0000f0 b5 6c 88 3c 19 58 23 3c 6d c6 3b bb fc 2d c6 3c
       0.016653398 0.009969735 -0.0028652207 0.024191849
000100 a7 be eb bb 95 b3 c5 3c e3 1c b3 bc 84 06 23 b9
       -0.0071943584 0.024133483 -0.02186436 -0.00015547319
000110 31 be 15 3a cc ec b1 bc 80 03 de bb 14 53 ab bc
       0.00057122397 -0.021719359 -0.0067753196 -0.020913638
000120 6f 77 4d 3b 0a 60 dd bc ec 55 85 3c 02 91 ce bc
       0.0031351706 -0.027023334 0.016276322 -0.02521563
000130 c8 61 33 bc f4 62 a1 bc 63 9d bd bb ee 1d c3 bc
       -0.010948606 -0.019700505 -0.005786584 -0.023817983
000140 4f 4e c8 ba b7 41 0f bc e0 1b 6c 3c 33 3d 6d 3c
       -0.0015282127 -0.008743695 0.014410943 0.014479923
000150 fc 00 d5 3c 0d 7a 8c 3b a2 38 a8 3c 1c 9d 91 bc
       0.026001446 0.0042870105 0.020534817 -0.01777511
000160 99 e9 af 3b 11 16 5a bc 01 50 5a 3c e6 d5 69 3c
       0.005368423 -0.013310925 0.0133247385 0.014272189
000170 1a 24 67 bc de a0 63 bc f5 89 2c 3b 4c c9 3e 3c
       -0.014107728 -0.013893334 0.0026327346 0.011644673
000180 61 2e 3e 3c b8 ae 14 bc ae cd d7 bb de ea 07 3c
       0.011607737 -0.009074859 -0.006585798 0.008295743
000190 aa c8 97 bc 6c b8 9d bc 6b ec d1 3c c8 53 45 bc
       -0.018528301 -0.019252978 0.025625428 -0.012043901
0001a0 d2 6f b1 3c d3 2b 87 bc 63 c9 28 3c d5 8c 35 bc
       0.021659765 -0.01650039 0.010301921 -0.01108094
0001b0 de 37 67 bc 2d 54 88 bc b9 08 53 bc b8 12 c1 3b
       -0.014112441 -0.0166417 -0.012880498 0.005892124
0001c0 0d 73 80 bc af 59 95 ba 76 7f 2e 3c 98 b5 66 bc
       -0.01567986 -0.0011394526 0.010650506 -0.014081381
0001d0 71 7b 65 bc 81 7f 94 bb 73 17 c7 3c fe f7 d7 bb
       -0.0140064815 -0.004531801 0.024303174 -0.0065908423
0001e0 dd 43 a7 bc c3 b4 99 3b a5 e5 6e 3c 9b 45 9b bc
       -0.020418102 0.004690738 0.014581119 -0.018954089
0001f0 82 21 c2 3c cc c0 fa bc 8c da 76 bb 3f dd 94 3c
       0.023697618 -0.03060951 -0.0037666885 0.018171905
000200 ac 6d 2f bc 2a 83 98 bc 26 54 a6 3b 68 37 9d 3c
       -0.0107073 -0.018617231 0.0050759492 0.019191459
000210 4b 04 9c 3c 85 9c 69 bb 2d 5b a0 3c 16 83 e8 3b
       0.019045016 -0.0035646271 0.019574726 0.007095705
000220 a7 bc 6a bc 80 f3 9d 3c fb 41 85 3c bc cb c7 3b
       -0.014327205 0.019281149 0.016266814 0.006097285
000230 b4 53 a8 3c 5a 5b f7 bb a6 43 0b 3d 86 67 be bc
       0.020547725 -0.0075487318 0.03400006 -0.023242723
000240 38 e3 80 bc ef 0c c4 bc 69 47 04 3c b0 13 b4 bc
       -0.015733346 -0.023931948 0.008073666 -0.021982044
000250 2a 5e 1c bb 13 cc 91 bc 52 c6 99 3c 4a e1 1f bc
       -0.0023859837 -0.017797505 0.018771324 -0.009758303
000260 4e 07 e1 bc df 94 0f 3c cb 45 c9 bc 20 05 bc bc
       -0.027469303 0.008763521 -0.024569413 -0.022951663
000270 69 ab 02 bd b8 c9 18 3c c6 49 91 bb 1d 23 48 3c
       -0.03190175 0.009325437 -0.0044338433 0.012215403
000280 12 14 d3 3b 24 a5 4a bc 9f 06 5a bc 3c 2f 35 3b
       0.0064416016 -0.012368474 -0.013307243 0.0027646562
000290 ca ca 0b bc 53 57 2e 3c 15 e8 88 bc 56 6c eb bc
       -0.008532235 0.010640937 -0.016712228 -0.028738182
0002a0 d8 3e 9b bb 73 40 c2 3b e4 1f b2 bb 92 d0 5b bb
       -0.004737716 0.005928093 -0.0054359306 -0.0033541066
0002b0 08 41 b3 bc b2 37 d9 b8 35 f2 ba 3c 85 50 f2 3b
       -0.021881595 -0.000103577404 0.022820571 0.0073948526
0002c0 af 1f f0 3a 09 ad 30 bc 5a d0 81 bc af 57 d1 bb
       0.0018319989 -0.010783442 -0.01584642 -0.0063886265
0002d0 66 9c 05 3c a9 39 68 bc 92 5c d2 bc b7 23 96 bc
       0.008154964 -0.0141739035 -0.025678907 -0.018327577
0002e0 4a 96 1b bc 65 1b f0 bb 8a 72 53 3c 38 41 07 bd
       -0.009496281 -0.0073274844 0.012905726 -0.03302118
0002f0 b7 f1 71 3b 24 ad a7 bc 9a af ed 3c 45 a1 2b bc
       0.0036917755 -0.020468302 0.029014397 -0.010475461
000300 33 69 f8 bc 4b 75 cb 3c 3e 3c 8b bc b7 50 7e 3c
       -0.0303236 0.024836203 -0.0169965 0.015522174
000310 42 e4 ad bc c8 a0 2c 3b 51 a6 d8 3b d1 54 e5 bc
       -0.021227006 0.002634095 0.0066116233 -0.027994545
000320 10 7c 6a bc ea 2f a3 3c ea b9 7e ba ae 1b 40 3c
       -0.014311805 0.019920308 -0.00097170344 0.011725349
000330 56 90 a8 bc 1f 47 68 bc 0f 55 99 bc 6a 18 94 bc
       -0.020576637 -0.014177113 -0.018717317 -0.018078048
000340 ab 8b a8 3c 77 22 2e bb ce 24 a1 bb a9 12 b6 bc
       0.020574411 -0.0026570836 -0.0049177175 -0.022225695
000350 27 be bb bc 96 a5 9c 3b d0 43 17 bc 49 c7 da 3c
       -0.02291782 0.0047804816 -0.009232476 0.026706355
000360 15 81 7c bc f2 d3 23 bc 85 7c eb bc 67 45 02 bd
       -0.015411635 -0.009999262 -0.028745899 -0.03180447
000370 d7 cd 29 3c ef 8b f1 bc d3 56 b1 3c 26 57 8d bb
       0.010364017 -0.02948567 0.021647846 -0.0043133674
000380 ee 8c 13 3c 65 f0 4e 3c 33 a7 36 3c 2f b3 3b 3c
       0.009005768 0.012630557 0.011148262 0.011456295
000390 3b db 8d 3c 77 51 ac 3b 88 cd f2 bb 5f 3e b7 ba
       0.017316451 0.005258735 -0.007409755 -0.001398038
0003a0 a5 4b 56 bb 13 90 32 bc e6 7e 43 bc ba c6 b1 bb
       -0.0032698896 -0.010898608 -0.01193211 -0.0054253014
0003b0 df e8 c0 bb ac 44 83 bc b0 53 f7 3b 08 64 14 ba
       -0.0058871354 -0.016023956 0.007547818 -0.0005660658
0003c0 b4 27 90 3c ce fa 7a 3b 67 71 0b 3d 19 f2 20 bc
       0.017597057 0.0038296464 0.034043696 -0.009823346
0003d0 07 5f 81 3c 35 a6 ef 3b 94 4a 11 3d f2 a6 e1 3b
       0.015792383 0.0073135146 0.035471514 0.0068863565
0003e0 6d 11 bd 3c 12 9e 3d 3b a5 54 86 bc dd b7 27 bc
       0.023079598 0.0028933329 -0.016397784 -0.0102367075
0003f0 1e d2 76 3c c9 02 cf 3c 5d 53 dd bc 65 14 88 bc
       0.015064744 0.025269883 -0.02701729 -0.016611287

enc.conv.3.bias f4 [32]
000000 d6 42 98 3c 95 d2 25 3c 0e a6 5a bc 59 69 ea bb
       0.018586557 0.010121007 -0.013345255 -0.0071536717
000010 d4 4d 2c bc 5b 01 e1 bc 43 f9 29 3c 61 6d e0 39
       -0.010516603 -0.027466467 0.01037437 0.00042806103
000020 2f 1d 83 bc 6a 43 b4 bc c8 ae 49 bc 49 5a 5d 3a
       -0.016005127 -0.022004802 -0.0123097375 0.00084439345
000030 12 5c 61 bc c7 8e e5 bc 3d 7e 54 bc 44 f7 da bb
       -0.013754861 -0.028022183 -0.012969551 -0.0066823084
000040 b8 b4 6f 3c 7b 8f 0c 3c 18 e6 24 3c 46 5f c9 3a
       0.014630489 0.00857913 0.010064624 0.0015363477
000050 3b 4e 25 3c 3e 59 e1 bc 32 a8 40 3d 6f 19 90 bc
       0.010089452 -0.027508374 0.047035404 -0.017590253
000060 5f 2a 02 bc 68 a8 9d bc 83 17 9b 3c 24 b5 ae 3c
       -0.007944672 -0.019245341 0.01893211 0.021326609
000070 0b 07 96 3b fa a1 e2 bc a0 a9 d1 bc cf 3d 32 bc
       0.0045784763 -0.027665127 -0.025593579 -0.010878994

enc.conv.5.weight f4 [32]
000000 a6 46 82 3f 13 32 7e 3f 2d b6 81 3f d8 60 82 3f
       1.017781 0.9929516 1.0133721 1.0185804
000010 9f c7 7f 3f aa 67 7c 3f 6e 78 7b 3f b1 67 7f 3f
       0.9991397 0.9859568 0.98230636 0.99767596
000020 ad bd 7b 3f 00 07 81 3f 67 99 86 3f ac d6 81 3f
       0.983363 1.0080261 1.0515565 1.0143638
000030 e0 11 82 3f db bb 80 3f 1d d3 7c 3f 39 bd 85 3f
       1.0161705 1.0057329 0.98759633 1.0448371
000040 f6 ca 7e 3f 01 be 7a 3f 27 04 7c 3f a5 a3 7b 3f
       0.99528444 0.9794617 0.98443836 0.98296577
000050 1e 25 80 3f 03 e0 7f 3f 79 2d 79 3f b5 88 80 3f
       1.0011327 0.9995119 0.9733501 1.004172
000060 e3 5a 81 3f 37 ce 7e 3f b7 3d 7e 3f 2f a2 7f 3f
       1.0105861 0.9953341 0.9931292 0.9985685
000070 3f 8f 7e 3f a3 11 7e 3f 17 90 7c 3f 5f a7 7e 3f
       0.99437326 0.9924566 0.98657364 0.9947414

enc.conv.5.bias f4 [32]
000000 36 6e fa bc cb ec 12 3d 6b 47 25 3c d2 1c f5 3c
       -0.03057013 0.035870355 0.010087828 0.02992097
000010 5f 92 cd 3b f4 be 61 3c a0 e7 7d 3c 31 9c e9 3b
       0.0062735523 0.013778437 0.015497118 0.007129215
000020 da af 12 3d 16 03 b6 3c e8 89 b8 bc c7 9b ab 3a
       0.035812236 0.022218268 -0.022526696 0.001309269
000030 78 4b 6b b9 04 1e 17 bc ec 0a 00 3b 75 da b3 bc
       -0.00022439461 -0.009223465 0.001953776 -0.021954754
000040 67 d2 89 3c d9 b6 c7 3c 7a e2 18 3c 07 03 c2 bb
       0.01682396 0.02437918 0.00933134 -0.005920771
000050 e3 03 84 bc da 8d 2a bc 57 6c 81 3c 48 8e c8 3b
       -0.016115135 -0.010409797 0.01579873 0.006120477
000060 8c f0 5a 3c ec fc 9d b9 7c 1f 38 bc c8 09 01 bc
       0.013363015 -0.00030133815 -0.011237975 -0.007875867
000070 af 4c 91 3b c8 06 dc bc 25 e2 e3 bb 6f 62 03 3c
       0.00443419 -0.026858702 -0.0069544488 0.008019074

enc.conv.5.running_mean f4 [32]
000000 31 7b 5d 3e 20 50 b6 3f d1 df 65 3e cb 40 ff 3e
       0.21629025 1.4243202 0.2244866 0.4985412
000010 d5 7d ad 3e e5 89 c4 3e 13 76 a2 3f 64 f5 3f 3f
       0.33885065 0.38386455 1.2692283 0.7498381
000020 df 48 08 3f e1 e1 07 3f f7 a9 42 3e 0c 4f e4 3e
       0.5323619 0.5307904 0.19010149 0.44591558
000030 5e 8b 0b 3f 76 ab 60 3f 66 bc 48 3f 2e 70 7e 3e
       0.5450953 0.8776163 0.78412473 0.2484748
000040 90 c3 45 3e a0 a8 b5 3f 96 32 f2 3e 90 fd 3b 3f
       0.19312882 1.4192085 0.4730422 0.7343378
000050 96 54 f3 3e ae 41 30 3f 92 a8 2a 3f 9b db b6 3f
       0.4752547 0.6885022 0.6666347 1.4285768
000060 b2 7a 26 3f 22 c9 df 3e 3a 23 8d 3f 67 66 38 3f
       0.6503097 0.4370814 1.1026375 0.72031254
000070 d0 54 94 3f 44 0c 9b 3e 1a d2 82 3f 03 9e 9f 3f
       1.1588383 0.30282795 1.0220368 1.2470096

enc.conv.5.running_var f4 [32]
000000 3d df 8a 3e b6 60 d3 3f 50 3e 81 3e a5 74 91 3e
       0.27123442 1.6513889 0.25242853 0.28409305
000010 ec 24 a4 3f 59 56 ba 3f 5f ae dc 3f cc 3e f2 3f
       1.2823768 1.4557601 1.7240714 1.8925414
000020 eb 31 1b 40 f9 ed ff 3e f4 b1 36 3e 46 8a 9e 3e
       2.4249218 0.49986246 0.17841321 0.3096487
000030 de 6c a6 3e 26 be 93 40 98 ec 44 40 bf 0b 73 3e
       0.32504934 4.6169615 3.0769405 0.2373495
000040 67 a5 83 3e 13 84 ff 3f 13 a4 1a 3f d3 ef a8 3f
       0.2571213 1.9962181 0.6040661 1.3198189
000050 e6 b6 4d 3f cc 96 b4 3f c3 b7 ca 3e a3 b2 fe 3f
       0.80357206 1.410852 0.39593324 1.9898266
000060 37 70 bf 3e a3 cb 39 3f 40 f8 88 3f 1e 71 db 3f
       0.373903 0.7257635 1.070076 1.7143896
000070 76 92 9a 3f 33 0e 22 3f e6 94 92 40 9e c4 a8 3f
       1.2075946 0.63302916 4.580676 1.3185003

enc.conv.6.weight f4 [16, 32, 5, 5]
000000 44 3a be bc c1 12 1d bd e5 a5 0c bc 1e 85 b5 3c
       -0.023221143 -0.038347963 -0.008584474 0.022158202
000010 71 80 b6 3c 44 39 1d bd 1d b7 d4 ba 09 b4 ec bc
       0.022278043 -0.03838469 -0.0016228888 -0.028894441
000020 55 8f 33 bd b7 da d2 bc d6 45 51 3c e9 83 70 ba
       -0.043837864 -0.025739057 0.012772998 -0.00091749296
000030 68 a8 d2 3b 3c 50 f0 ba 42 e7 2e bc f0 78 30 ba
       0.006428767 -0.0018334459 -0.010675253 -0.0006731888
000040 1e 8f da bc c2 09 18 bb 91 46 8d bc a5 64 e8 3b
       -0.026679572 -0.0023199175 -0.017245563 0.007092076
000050 b5 99 87 3c 24 51 97 3b 10 09 dd bc 23 4f bb bc
       0.016552785 0.004617827 -0.02698186 -0.022864884
000060 26 fb 03 bb f0 22 ae 3c 63 59 09 bc b1 7e 84 3c
       -0.002013871 0.021256894 -0.008383128 0.016173692
000070 4f 8d fd b9 be 39 2c 3c 9d 58 e7 3c e3 00 06 bd
       -0.00048361204 0.010511814 0.028240496 -0.03271569
000080 05 83 19 bc c4 d7 d6 bc ad 4b bc bb bc 79 f0 bb
       -0.009369616 -0.026225932 -0.005746326 -0.0073387306
000090 f2 ed 99 bc 99 78 ee 3c 0d 09 bd 3b 72 d8 0b 3d
       -0.018790219 0.02911024 0.005768901 0.034141965
0000a0 ed 41 d2 3b a3 bd 09 3a cd fe e8 bb e9 ff b1 bc
       0.0064165504 0.00052543933 -0.0071104527 -0.021728473
0000b0 64 aa 28 bd f0 10 0e 3d 6d c6 d4 ba 34 30 e8 3c
       -0.041178122 0.03468412 -0.0016233452 0.028343298
0000c0 10 14 4e bc df 43 15 3b b1 ae 1d 3c b7 79 8e 3c
       -0.012578025 0.002277605 0.009624169 0.017392023
0000d0 ce cf 99 3c 2e 0f 75 3c 90 d6 15 bc 20 75 9e 3b
       0.018775847 0.014957232 -0.009145394 0.0048357397
0000e0 64 a8 1f bd e8 c5 08 bd 56 55 a6 bc d8 d0 1f 3c
       -0.03897895 -0.033391863 -0.020304363 0.009754382
0000f0 28 aa df bc d1 69 f3 bc 98 d3 92 39 d2 bc 2c bc
       -0.027302817 -0.029713543 0.0002800494 -0.010543065
000100 c7 59 05 bd b8 33 3a bc b9 b3 88 3b 52 68 26 3b
       -0.03255632 -0.01136487 0.0041718152 0.002539177
000110 85 c8 8c 3c 97 ef 3f bd a7 f0 04 3c 64 4d 27 bc
       0.017185459 -0.04685935 0.008114017 -0.010211322
000120 58 a8 93 bc f0 b4 3e 3c 7e 7f 68 3c 06 a1 71 3b
       -0.018024608 0.011639819 0.014190553 0.003686966
000130 0b 52 10 bc 2d 35 78 3c 92 63 40 3d 90 c6 48 3a
       -0.008808623 0.015149397 0.046969958 0.00076589826
000140 24 1a 3a ba d7 31 ef 3b 80 9b 20 3d af 55 c4 3c
       -0.0007099232 0.0072996425 0.039210796 0.023966638
000150 fb ab 8e 3b a4 39 99 bc c9 44 83 bc af b9 2d bc
       0.0043539978 -0.018704243 -0.01602401 -0.010603352
000160 e5 56 d2 bb 0c 46 c0 bc fd be 07 3c 25 de 17 3d
       -0.00641905 -0.023470901 0.008285281 0.037077088
000170 54 2f d5 3c 05 8e 95 bc 81 09 17 3c 4b fe 1e 3d
       0.026023544 -0.018256197 0.0092185745 0.03881673
000180 14 36 b7 bc c3 dd 93 3c 32 ef b3 3c eb 09 e5 3c
       -0.022364654 0.01805008 0.021964643 0.02795883
000190 88 d3 97 3b 5b 4a 94 3c a1 50 18 bd 2e d2 00 bc
       0.004633371 0.018101862 -0.03718627 -0.007862611
0001a0 85 f2 56 bc 66 ec b7 3c d2 c4 c0 bc ff 9c c0 3c
       -0.013119345 0.02245159 -0.023531351 0.023512362
0001b0 13 56 30 bb f4 c4 2b 3c 73 f4 64 bc a2 8c 45 3b
       -0.0026906773 0.010483969 -0.013974297 0.0030143638
0001c0 b7 85 e9 bc 72 dc 1d bd 1c 43 cf bc d1 b9 58 bc
       -0.028506143 -0.03854031 -0.025300555 -0.013227896
0001d0 49 8f 6a 3c a1 6d cc bc 84 86 8a 3c a7 17 17 bd
       0.014316388 -0.024954619 0.016909845 -0.03688779
0001e0 d7 0a 12 bd bc a2 23 bd ee 94 35 bb 67 04 5f bc
       -0.03565487 -0.039950117 -0.0027707177 -0.013611889
0001f0 d9 97 46 3b 60 e0 8d bc b9 f9 fd bc 12 7a 25 3c
       0.003030291 -0.017318904 -0.031002866 0.010099905
000200 09 fa a4 bc 7e c5 44 bb db ee 53 bc e8 41 b2 3c
       -0.020138757 -0.003002494 -0.012935366 0.021759942
000210 7a 39 05 bd 47 69 9c 3c 97 49 19 bd 67 ca da bb
       -0.032525517 0.019093169 -0.037423696 -0.0066769603
000220 3f d4 e2 3a 77 15 fd 3c 73 28 ee ba 0f 41 92 3c
       0.0017305686 0.030894024 -0.0018170014 0.017853288
000230 63 03 e8 bc fb 19 0d bb 9a 2d 46 bc b1 f1 ed bc
       -0.028321927 -0.0021530378 -0.012095833 -0.029045912
000240 48 e3 a2 ba 02 92 bd 3a ab 60 2a 3d c9 cc 0c bc
       -0.0012427354 0.0014463069 0.041596096 -0.008593746
000250 e5 98 9a 3c 55 8b 65 bc 34 75 36 3b be c6 af 3c
       0.018871734 -0.01401027 0.0027840855 0.021457072
000260 44 4b 68 b9 9d 8d c1 bc 4a 6c 47 bb ea 99 e0 3c
       -0.00022153283 -0.023627097 -0.0030429536 0.027417142
000270 6e 1a c3 3c 81 fb 22 3b 5d 7c b5 3c c7 7c e6 3c
       0.023816314 0.0024869146 0.022154028 0.02813567
000280 58 18 1c 3c 7e 58 ff bc 00 24 7d 3a fb d4 ad bc
       0.009527288 -0.031170126 0.00096565485 -0.021219721
000290 a7 46 60 bc cf e6 39 bc ec cd 78 3c af 62 3d bc
       -0.01368872 -0.011346533 0.015185814 -0.0115591725
0002a0 a4 90 25 bb a4 e4 f7 bc 5f 44 5e 39 d6 e9 b5 bb
       -0.0025263214 -0.030260392 0.0002119704 -0.005551557
0002b0 9b 20 3a 3c d4 60 00 3c 83 d9 17 3c 34 ef db 3c
       0.011360313 0.007835586 0.009268167 0.02684746
0002c0 eb d9 c5 bc d3 0f d5 3b 55 63 ad bc 5b 37 fd bc
       -0.024151763 0.0065021305 -0.02116553 -0.030910185
0002d0 96 71 d1 bc 22 6b c5 3b 07 93 9e bb 0e 7a dc 3c
       -0.025566857 0.006024734 -0.0048393044 0.026913669
0002e0 86 ba 65 bc 15 53 27 bc 7b 14 a6 3b 94 d5 f1 b9
       -0.014021521 -0.010212679 0.0050683594 -0.0004612623
0002f0 29 5a 9c bc 37 3c cf bc 55 c2 16 bd 75 f1 8f 3c
       -0.01908596 -0.025297267 -0.036806423 0.01757119
000300 be 08 51 3c ae b6 c4 bc 17 14 c2 3b 74 d7 5f 3c
       0.012758432 -0.02401289 0.005922805 0.013662208
000310 00 44 64 ba 02 79 26 3c 98 ed ab b8 9b 20 92 bc
       -0.00087076426 0.010160686 -8.198171e-05 -0.017837813
000320 7b 0c 1d bd 1d 9d ee 3b 72 f1 01 3c d5 8e 09 3d
       -0.03834198 0.007281913 0.0079311 0.03358348
000330 9e 3c 88 bc f3 30 9b bc 7b 02 2d 3b d9 a4 c1 3b
       -0.016630467 -0.01894424 0.0026399184 0.005909544
000340 17 c8 f6 bc 14 a7 4c bc 0b 86 cc 3a 33 29 d7 3c
       -0.030124707 -0.012491006 0.0015603913 0.026264763
000350 da 56 22 bc 8b d5 ff bc ba e8 fc bc c5 97 7b 3c
       -0.009908402 -0.031229755 -0.030872691 0.015356009
000360 7b 3f dd 3b 41 31 0a bd 09 7a ac 3c a6 50 bf 3b
       0.006751952 -0.03373838 0.021054285 0.0058384715
000370 c7 32 c6 3c 40 a8 0f bd 42 f8 fe ba cd d9 b2 bb
       0.024194134 -0.035072565 -0.0019452649 -0.005458093
000380 c5 a3 00 bd e1 5f 08 3c 47 fe 19 3d 5c 62 11 3d
       -0.031406183 0.008323641 0.037596013 0.035494193
000390 3b 42 a7 bb 96 f5 0a 3c cb 9f 16 bc c6 fc e0 3c
       -0.005104331 0.008481404 -0.009193371 0.027464282
0003a0 b3 05 0a 3d 59 46 8b bb a5 cf b2 3b 56 1d cf bb
       0.03369684 -0.0042503295 0.005456882 -0.006320636
0003b0 16 07 8f bc 86 5b 29 3c 66 ec e0 3c 75 d2 62 3b
       -0.017459434 0.010336762 0.027456474 0.0034610305
0003c0 d9 71 b3 3c f8 b7 62 bb 01 16 bd 3c 2d fe d5 3c
       0.021904873 -0.0034594517 0.023081781 0.026122177
0003d0 a2 d9 a1 bc 50 35 59 3c 26 27 91 bc 92 63 77 3c
       -0.019757096 0.01325734 -0.017718863 0.015099423
0003e0 02 4c da 3c 7d 09 34 ba c4 f1 1a bc 77 8f 13 bc
       0.026647571 -0.0006867869 -0.0094570555 -0.009006373
0003f0 3d 89 3f bd 37 3f e1 bc 3a 9c b4 bc bd 1d ab 3c
       -0.04676174 -0.027495963 -0.02204715 0.020888204

enc.conv.6.bias f4 [16]
000000 50 bf 10 3d 00 11 1f 3d 06 01 0c 3d 18 34 22 3c
       0.0353387 0.03883457 0.034180664 0.009900115
000010 7e 2d 4b 3c fc 6a 1e 3d 1a 50 57 bc de d5 11 3d
       0.012400983 0.038676247 -0.013141656 0.03560435
000020 86 92 a7 bb 1e 80 60 3c dd d5 6d bd f8 2b aa bc
       -0.0051139025 0.0137024205 -0.058065284 -0.020772919
000030 0b de d6 3c cd 81 50 bb 32 3c e5 3c f8 c9 14 bc
       0.026228925 -0.0031815649 0.027982805 -0.009081356

enc.conv.8.weight f4 [16]
000000 5f 9f 6f 3f 30 a2 72 3f 66 41 6b 3f 13 ac 70 3f
       0.93602556 0.9477873 0.91896665 0.94012564
000010 28 c6 6b 3f 34 1b 72 3f 2c 33 6f 3f 7d 3c 71 3f
       0.9209924 0.9457276 0.9343746 0.9423292
000020 33 99 6f 3f bf 4f 70 3f bd bc 82 3f cc 90 70 3f
       0.9359314 0.9387168 1.0213848 0.9397094
000030 fd cb 6a 3f 21 be 71 3f ea 6a 72 3f 23 ec 6d 3f
       0.9171751 0.9443074 0.9469439 0.9293844

enc.conv.8.bias f4 [16]
000000 d6 1b 83 3b f1 a5 dc 3b cb 70 5a 3c 7b 06 ba 3b
       0.004001121 0.006733649 0.013332556 0.005677042
000010 30 5b 9e 3a ce 73 88 3c e4 cb a9 3b 3d 18 72 3b
       0.0012081619 0.016656782 0.0051817764 0.0036940717
000020 f8 fc 13 bb c2 9b cd 3b d4 20 64 bd 22 9c 74 39
       -0.00225812 0.0062746713 -0.05569537 0.00023327817
000030 64 39 ae 3b b6 07 00 3c ab 5e 2c 3b 95 ef cf 3b
       0.0053169 0.007814338 0.0026301544 0.006345699

enc.conv.8.running_mean f4 [16]
000000 71 e7 7b 3f 35 4f 8f 3f f2 b4 9a 3f 1f 28 81 3f
       0.98400027 1.1196047 1.208647 1.0090369
000010 5f bb aa 3f 0d 60 a8 3f c5 a8 82 3f 78 95 89 3f
       1.3338431 1.3154312 1.0207754 1.0748739
000020 91 34 81 3f 75 08 83 3f 3d 53 8f 3d ea 5b 42 3f
       1.0094167 1.0236956 0.06998298 0.759215
000030 e4 73 89 3f fd b4 95 3f 7d f9 8d 3f 4b 54 9a 3f
       1.0738492 1.1695858 1.1091763 1.2056974

enc.conv.8.running_var f4 [16]
000000 6a cc 20 3f 8a 91 53 3f bf 3f 75 3f 9d 30 31 3f
       0.6281191 0.8264395 0.95800394 0.69214803
000010 7d 72 98 3f f6 a4 91 3f eb 25 32 3f 9d 86 45 3f
       1.1909939 1.1378467 0.6958911 0.7715853
000020 36 a8 30 3f 00 c1 30 3f 41 c1 9c 3c 80 b9 c4 3e
       0.6900667 0.69044495 0.01913512 0.38422775
000030 29 a7 3e 3f 7f 8f 6e 3f 93 99 4d 3f 4f 7f 80 3f
       0.74473816 0.9318771 0.8031246 1.0038851

dec.fc.weight f4 [3600, 32]
000000 ef 35 3c 3e 09 3d db bc 10 07 c9 3d 1d 0b 11 be
       0.18379949 -0.026762502 0.098158 -0.14164396
000010 8a b4 a0 bd 07 50 89 bc 2e 7c 8a bd 42 b0 09 3d
       -0.07846935 -0.016761793 -0.06761967 0.03361536
000020 4e 2a 30 bc fa 3a 2e 3e 91 69 88 bd 30 eb 21 bc
       -0.010752274 0.17014685 -0.0666076 -0.009882733
000030 c0 f4 a9 bd a6 c6 86 bd 68 b3 b1 bd cb c2 da 3d
       -0.082986355 -0.06580858 -0.08676797 0.10681685
000040 2c 0b e6 bb a6 b3 3c 3e 29 66 8d 3d 17 3d cd bd
       -0.0070203748 0.18427905 0.06904251 -0.100214176
000050 16 c3 b0 bd 68 90 1b 3c 83 85 b4 bd a1 79 3d bc
       -0.0863096 0.009494878 -0.08814528 -0.011564643
000060 08 fb 33 bd 5e 69 d9 3d 60 18 75 3c 9f bf e1 bc
       -0.043940574 0.106158 0.014959425 -0.027557192
000070 8d 27 c4 bc 2d 94 c6 3c dd 4c a4 3d cf 06 66 bd
       -0.02394464 0.024240578 0.08022473 -0.056158837
000080 06 f1 fe bd 49 5a f6 bd ed 4c 00 bd 78 54 9b 3c
       -0.12448315 -0.12028939 -0.031323362 0.018961176
000090 6d 20 d3 bd 22 70 49 3e c7 cc 9e 3d 0c 20 d4 3c
       -0.10308919 0.19671682 0.07753902 0.025894187
0000a0 f9 6d cc 3d c8 9d 88 3b bf a8 fa bc e6 f7 ea bd
       0.09981913 0.0041691996 -0.030598043 -0.11473064
0000b0 9a 38 d3 bb e0 02 3b 3d 3f 5d ec 3d c3 e5 f0 bd
       -0.0064459564 0.04565704 0.11541223 -0.117625736
0000c0 1c e4 14 be c7 33 d4 bb 33 20 88 bc 64 86 28 be
       -0.14540142 -0.006475899 -0.016616916 -0.16457516
0000d0 2e cf e5 3d 82 a8 75 3d 34 b8 0d be 92 e7 51 3d
       0.11221157 0.059975155 -0.13839799 0.051246233
0000e0 8b 39 0a 3e ed 42 e3 bc ae f6 d1 bd 44 95 87 3d
       0.13498513 -0.027741874 -0.102521285 0.06620267
0000f0 96 b7 93 bd 54 d5 09 3d 0c 67 df 3d 97 b4 90 3d
       -0.072127506 0.03365071 0.109083265 0.07065695
000100 07 63 af 3d b1 26 1f 3d 94 ea 09 3d ab 3f e6 bd
       0.0856381 0.03885526 0.033670977 -0.112426125
000110 7b 4e 86 bd 23 03 23 3e 62 39 36 bd e9 dc c9 bd
       -0.06557938 0.15919165 -0.04448832 -0.098565884
000120 4e f5 15 3c 39 b4 1e bd 8c 93 3f 3d 71 49 95 bd
       0.0091527235 -0.038746092 0.04677157 -0.072893985
000130 14 6f ba 3d 0f 6e c0 3d f7 64 2e be 1b 69 af bb
       0.09103218 0.09395992 -0.17030703 -0.0053531057
000140 2b c2 f7 3d 4d 04 9f bc 84 1a 46 3c 03 a4 1e be
       0.120975815 -0.01941123 0.012091283 -0.15492253
000150 65 33 e7 bd 87 aa 8c 3d 9b 4e a7 3c ef 77 1a be
       -0.112890996 0.06868463 0.020423224 -0.15084814
000160 90 dc 2b 3e e1 46 c2 3d 35 d8 39 3d 6b de 3d 3c
       0.16783357 0.09486175 0.045372207 0.011588673
000170 c7 30 34 3d 63 99 f2 3d a0 58 7d bd 5b 79 f2 bd
       0.04399183 0.118456624 -0.061852098 -0.11839553
000180 8a 45 4a bd c9 df bb bd 17 44 d9 bd cc 0d d2 3d
       -0.049382724 -0.09173543 -0.1060869 0.10256538
000190 03 38 bc 3c eb fb 0e 3e fc fb 94 bd ed 81 c1 bc
       0.022975927 0.13963287 -0.07274625 -0.023621524
0001a0 37 57 99 3d 1d b7 b7 bd 91 3e c9 3d 52 0e 78 bd
       0.07487338 -0.08970473 0.09826387 -0.060560532
0001b0 2e 5e 47 3e ec 66 ed 3c ee ed be bd 21 44 db bd
       0.1946952 0.028979741 -0.09322725 -0.10706354
0001c0 57 c3 01 3e 8a cb 1c 3d 59 7a 8c 3d 9b 51 8c 3d
       0.12672172 0.038280047 0.068592735 0.068515025
0001d0 02 a2 f6 bd 73 12 23 bd 1a db b1 3d 38 09 bf 3d
       -0.12042619 -0.039812516 0.086843684 0.0932793
0001e0 61 0d 67 bd 00 9c 84 3d 91 20 67 3d 88 91 9c 3d
       -0.056409243 0.06475067 0.056427542 0.076449454
0001f0 f4 88 fc 3c 7d 2f 19 be 5b 2c 37 be 3d ff 97 bd
       0.030827023 -0.14959522 -0.17888014 -0.0742173
000200 84 23 8b 3c a3 95 4c bd 93 5c e6 bd 72 3c bd 3c
       0.016984709 -0.049947392 -0.11248126 0.023100112
000210 c5 2c 04 3c ca 0d a9 bd 6b 2d b4 3d 7b 22 6b 3d
       0.0080673145 -0.08254583 0.08797725 0.05740593
000220 51 10 a3 bd 72 bf 19 bd e3 37 36 3e 73 07 ae bb
       -0.079620965 -0.037536092 0.17794757 -0.0053109466
000230 89 3a 2f 3c d6 be be bc 43 16 0a bd 3d c4 99 3c
       0.010695108 -0.023284357 -0.033712637 0.018770332
000240 07 d7 cf bd e2 27 ab bd 28 54 9e bc 87 97 81 3d
       -0.10148435 -0.083572164 -0.019327238 0.0632773
000250 3b bc 3c 3e b5 95 bd 3c bd 1c 22 3e f1 91 80 3d
       0.18431179 0.023142675 0.15831275 0.06277836
000260 8a 31 29 3e 99 62 17 be 0b fa ba 3d 54 45 d2 bd
       0.16522804 -0.14783706 0.09129723 -0.102671295
000270 86 70 04 be ac 72 8e 3d b6 c4 8a 3a 53 15 da bd
       -0.1293355 0.06955466 0.0010587189 -0.106485985
000280 24 8b d8 bb 5f cf ea bd c9 9c da bd 94 e5 e3 3b
       -0.0066083837 -0.11465334 -0.10674436 0.006954858
000290 a7 17 07 be 1b c7 04 3c bb 2f c5 3d b1 b3 1c 3e
       -0.13192616 0.008104111 0.096282445 0.15302922
0002a0 22 34 21 3e 1e 3d 3e bd 90 17 cd bd e8 8c cb bb
       0.15742543 -0.046445005 -0.1001426 -0.0062118657
0002b0 a9 ca 22 3d 8e 3f c8 3d 7d a4 12 bd ef f6 d7 bd
       0.039744053 0.09777747 -0.0358014 -0.10545146
0002c0 81 75 db 3b 00 98 0b 3e da 5c 0e be 2f bb d6 bd
       0.006697357 0.13632202 -0.13902608 -0.10484921
0002d0 41 e1 e6 3d c0 36 02 3e a2 21 92 3d 69 d4 de 3d
       0.112734325 0.12716198 0.07135321 0.10880358
0002e0 60 f1 28 bc ec 1a b1 bd 20 f6 63 bd 86 c8 8b bc
       -0.010311455 -0.08647713 -0.055654645 -0.01706339
0002f0 54 f5 92 3d 0c 68 7b 3d 04 5b 3f be 91 c3 a3 bd
       0.07175699 0.061378524 -0.18687063 -0.07996286
000300 58 0f 36 be a7 08 f4 bc ae 65 17 3e d1 51 d6 bc
       -0.1777929 -0.029789282 0.14784881 -0.02616206
000310 72 07 e7 3c e0 68 eb bd 42 4d 4a 3d 45 a1 4c be
       0.028201792 -0.11494613 0.049390085 -0.19983394
000320 61 b2 f3 bd 89 9b 8b 3c 22 d2 e3 3b c0 49 33 3d
       -0.118992575 0.017041938 0.00695254 0.043771505
000330 f6 20 bc 3c 4c ae 10 3e b2 4f 10 3e f5 8e ba bb
       0.022964936 0.14128989 0.14092901 -0.0056933113
000340 72 11 81 bd d9 59 02 be 06 bf 0c bd 9f 59 21 bd
       -0.063021556 -0.12729587 -0.03436186 -0.03939211
000350 6f 97 13 3e bc 41 a9 bd 16 c7 48 3e 24 2e b1 bd
       0.14413236 -0.08264491 0.19607195 -0.08651379
000360 8f 2b 71 3c b4 ab 55 3e 17 48 9c 3d 2a d4 f2 bd
       0.014719858 0.20866281 0.076309375 -0.11856873
000370 7e f3 07 3e a9 59 f0 bc 11 0d 9a 3d 14 64 0d be
       0.13276479 -0.029339628 0.075220235 -0.13807708
000380 b1 c7 0c bd b7 3e 2f 3e b7 e9 01 be 54 c9 3c 3e
       -0.034370128 0.17113768 -0.12686811 0.18436176
000390 13 c7 d9 bd 74 22 25 be 22 94 63 bd f5 3e dc bd
       -0.106336735 -0.16126424 -0.055561192 -0.107541956
0003a0 37 a9 fe 3d 95 2d 19 3e 23 bd 9b bc 7c 8d 0f 3e
       0.12434619 0.14958794 -0.019011086 0.14018816
0003b0 eb ce d5 bd a6 2d 0f be 68 9a 0e be 16 8b 16 3e
       -0.10439857 -0.13982257 -0.13926089 0.14701495
0003c0 11 10 10 bd 77 7f 0f bb dd fa 78 bd e7 19 48 3d
       -0.035171572 -0.0021896043 -0.060786117 0.048852827
0003d0 a9 42 3c be 69 4f aa 3d 4b 20 b1 3d 4b 9a 66 3d
       -0.18384804 0.083159275 0.086487375 0.05629949
0003e0 ef a7 47 bc d2 41 34 be 83 53 70 3d 01 01 8c bd
       -0.012186035 -0.17603233 0.058673393 -0.06836129
0003f0 3c d4 e3 bd a5 72 21 3e fa 40 24 3e 3f db dc 3d
       -0.11124465 0.1576639 0.16040412 0.107840054
